…
{'training': True, '_parameters': OrderedDict(), '_buffers': OrderedDict(), '_non_persistent_buffers_set': set(), '_backward_pre_hooks': OrderedDict(), '_backward_hooks': OrderedDict(), '_is_full_backward_hook': None, '_forward_hooks': OrderedDict(), '_forward_hooks_with_kwargs': OrderedDict(), '_forward_hooks_always_called': OrderedDict(), '_forward_pre_hooks': OrderedDict(), '_forward_pre_hooks_with_kwargs': OrderedDict(), '_state_dict_hooks': OrderedDict(), '_state_dict_pre_hooks': OrderedDict(), '_load_state_dict_pre_hooks': OrderedDict(), '_load_state_dict_post_hooks': OrderedDict(), '_modules': OrderedDict([('actor', MLPPolicy(
(net): Sequential(
(0): Linear(in_features=376, out_features=256, bias=True)
(1): Tanh()
(2): Linear(in_features=256, out_features=256, bias=True)
(3): Tanh()
(4): Linear(in_features=256, out_features=256, bias=True)
(5): Tanh()
(6): Linear(in_features=256, out_features=34, bias=True)
(7): Identity()
)
)), ('critics', ModuleList(
(0-1): 2 x StateActionCritic(
(net): Sequential(
(0): Linear(in_features=393, out_features=256, bias=True)
(1): Tanh()
(2): Linear(in_features=256, out_features=256, bias=True)
(3): Tanh()
(4): Linear(in_features=256, out_features=256, bias=True)
(5): Tanh()
(6): Linear(in_features=256, out_features=1, bias=True)
(7): Identity()
)
)
)), ('target_critics', ModuleList(
(0-1): 2 x StateActionCritic(
(net): Sequential(
(0): Linear(in_features=393, out_features=256, bias=True)
(1): Tanh()
(2): Linear(in_features=256, out_features=256, bias=True)
(3): Tanh()
(4): Linear(in_features=256, out_features=256, bias=True)
(5): Tanh()
(6): Linear(in_features=256, out_features=1, bias=True)
(7): Identity()
)
)
)), ('critic_loss', MSELoss())]), 'actor_optimizer': Adam (
Parameter Group 0
amsgrad: False
betas: (0.9, 0.999)
capturable: False
differentiable: False
eps: 1e-08
foreach: None
fused: None
initial_lr: 0.0003
lr: 0.0003
maximize: False
weight_decay: 0
), 'actor_lr_scheduler': <torch.optim.lr_scheduler.ConstantLR object at 0x7fd358305600>, 'critic_optimizer': Adam (
…
